oneflow/python/test/onnx/load/models/temp_onnx/temp.onnx (onnx, 2492 bytes, 4 tensors)

22 f4 [4, 4, 3, 3]
00000000: 8743 e6bd f785 943d 4531 debd b63d b9bd
00000010: eb30 ba3d 2ab6 75bd 3415 a9bd 2157 20bd
00000020: b147 f03c b36a 7cbd 087e c23d 0e1d 25be
00000030: 359c 013e 32a1 d0bd fdd4 aebc 8319 033e
00000040: a40f 58bd bcdc af3d 48b9 6ebc d7ed b5bd
00000050: e04a c4bd 2e75 e1bd b5d8 02bd 60bb a93d
00000060: afee 033e d28c 21be 7dbb 233e 9023 63bd
00000070: e34a 883d 2cb9 d73d dd0a 15be 9bda 733d
00000080: 53a7 f23d a066 fcbd 5197 8e3b 4d58 843d
00000090: 4318 eb3d 8a40 243d 440f 673d 8e3c 173e
000000a0: b769 ac3d 1007 f33c 158d ccbd e88b c4bd
000000b0: 3e55 2b3d f4b6 bebd da76 bbbd b302 6bbc
000000c0: 6cd9 e03d ca03 a53b 6c27 40bc a122 e23d
000000d0: 3919 273d 9987 f8bd 68b3 a5bd ce49 af3d
000000e0: c7da ac3d 0204 bdbc c915 1bbe d5f0 0bbe
000000f0: 5e91 15be e363 05be 0015 043d 77ce dfbd
00000100: 1344 1dbe bc31 0d3e 8e99 25be 050b 34bc
00000110: e3cf 273e 96bb dbbd 3d5c 0b3d cd92 9cbb
00000120: e847 1a3e b2c7 06be 8c7f 9dbd a594 54bd
00000130: ff9b 153e ae1a 243e 7a69 23bd 188c cdbd
00000140: 3720 5dbc f00d 293e 3d11 cb3b 263d ebbd
00000150: 2472 c03d 74a9 febd 732a acb8 0299 843d
00000160: 8d59 84bd 663b abbd e977 eb3d d9b7 263e
00000170: ed97 8bbd 5b5d 9c3d b5b3 773d 754b d63d
00000180: c0ad e4bc 53a6 dc3d b3da 1a3e 38ee 013e
00000190: b420 49bd a220 bd3c 3b52 51bc b79f 5e3c
000001a0: 17bb 9dbc df34 133e ff4d 043e 2c9a 003b
000001b0: 8e50 993d 0fea 223e fc69 b6bd d6fc dbbd
000001c0: 6d3d bdbb c79e ac3d 1dc4 01be c1f2 023e
000001d0: 5711 40bc 367f 91bd d8f2 b3bd b2bf 6cb9
000001e0: 59d1 1abe cbba 83bd 040c b13d 0bfd e9bd
000001f0: 4a99 233e ae50 abbd f07a cb3d 8d02 f6bd
00000200: 7c2c b03d bb2b 10be 4733 e7bd 2cde be3c
00000210: 5870 bd3d 31b0 af3d 8a49 aebd 9cc6 e8bd
00000220: 1153 c8bd dbe8 d13c c482 f13d b978 fa3d
00000230: de8e cabc 1589 203e e331 ba3d 722b 24be
-0.112433486 0.07252114 -0.10849241 -0.090449736 0.090913616 -0.05998818 -0.08255997 -0.039145593
0.02933106 -0.061625194 0.09496695 -0.16124365 0.12657245 -0.101869956 -0.021341795 0.128027
-0.05274929 0.085870236 -0.014570542 -0.08883255 -0.09584594 -0.110086784 -0.03194495 0.08287692
0.1288402 -0.15776375 0.1598949 -0.055453837 0.066549085 0.105333656 -0.14554925 0.05953465
0.11848321 -0.12324262 0.0043515344 0.064621545 0.11479237 0.04010061 0.056411043 0.14769194
0.08418601 0.029666454 -0.09987847 -0.095969975 0.04182934 -0.09312239 -0.091535285 -0.014343905
0.1097897 0.005035852 -0.011728149 0.11041761 0.04079554 -0.12135238 -0.0809086 0.08558999
0.08440166 -0.0230732 -0.15145029 -0.13666089 -0.14606234 -0.13026385 0.03224659 -0.10928052
-0.15358 0.13788503 -0.16171858 -0.010988955 0.16387896 -0.107291386 0.034023512 -0.004778242
0.15066493 -0.13162115 -0.07690343 -0.05189957 0.14610289 0.16025802 -0.039895512 -0.100364864
-0.01349645 0.16509223 0.0061971233 -0.114862725 0.093967706 -0.12434664 -8.209506e-05 0.064744964
-0.06462393 -0.08360939 0.114974804 0.1628107 -0.06816087 0.07634994 0.060474116 0.10463611
-0.027914882 0.10773911 0.1512249 0.1268853 -0.049103454 0.02308685 -0.012775953 0.013587884
-0.01925425 0.14375637 0.12920378 0.0019623144 0.07486068 0.15909599 -0.08906934 -0.10741584
-0.005775145 0.08428722 -0.12672468 0.12787916 -0.011722884 -0.07104342 -0.08786553 -0.00022578126
-0.15118922 -0.06432112 0.0864487 -0.11425217 0.15976444 -0.08364998 0.09935558 -0.12012205
0.08602235 -0.14079182 -0.11289077 0.0232993 0.092499435 0.08578528 -0.0851012 -0.11366007
-0.09781469 0.02562373 0.1179252 0.12230057 -0.024726328 0.15677293 0.090915464 -0.16032198

23 f4 [4]
00000000: af87 223e 1998 10be b9c7 19bc 6cde 313d
0.15872072 -0.1412052 -0.0093859965 0.04342501

linear.bias f4 [4]
00000000: 8634 cbbd 5eba 5ebd 5f78 163c 6a4b 9f3c
-0.099221274 -0.054376952 0.009183972 0.01944514

linear.weight f4 [4, 60]
00000000: 7b15 fabc 38c1 a3bd 0b10 9cbd c914 9a3b
00000010: 26f8 c73d 35a4 90bd 092c efbd 3e0a c33c
00000020: 3371 e93d f8d1 4dbd db66 0d3d edc4 94bd
00000030: 7d66 63bc 1b0d af3d c69c 8a3d 4f39 ec3d
00000040: 23f6 46bd a125 97bd 910c ef3d 401f dd3d
00000050: d1dd 143d cf58 413d c1f8 aa3d c62c 70bc
00000060: 1c49 e13b 2bba ab3d 710a fa3c 91d6 f5bd
00000070: f640 103d 72bd 55bc b20a da3c f027 62bc
00000080: 3b27 f0bd d418 96bd 0250 dd3d 3888 febd
00000090: ce10 7f3d 5ee2 e5bc ca2a 7cbd a499 1dbd
000000a0: 7138 a4bd dee1 9e3d ca51 08bd c0f6 9a3d
000000b0: bae2 03be 390a c63c 2b67 03be e030 8d3c
000000c0: 0383 37bd febd ffbd 628a 99bd 82bc 4d3d
000000d0: e1fa 6cbd b884 b83d f686 c9bd 4dd2 a7bd
000000e0: 637a 833c e14a 9c3d 074f cc3d bdcb 1ebd
000000f0: bb2d c03b 3529 ebbd df07 213d 8a07 eb3c
00000100: 7c48 2cbd 22df 0ebd c968 f3bd 26b3 783d
00000110: a84e 7ebd de61 d03d 102b 4a3d 127f 73bd
00000120: 5ac0 37bd a3de 023e 21bd b83b a745 f7bc
00000130: a4d5 8a3d 595e 523c 902b 46bc b96a 02be
00000140: 932a acbd 1f17 ea3c e9f3 8bbd 2d75 0bbd
00000150: 4954 533d 4a10 59bd 7651 dd3d d398 323c
00000160: b982 adbd 0f10 353d bc36 84bd 6bb2 fe3c
00000170: 62a7 86bd 424b b73c 6ed4 283c 36ac dd3d
00000180: 77bd f5bd c8be 413c 2c78 f53d 4ec6 14bd
00000190: c094 373d 4a24 ff3d 8957 db3d fca7 fc3b
000001a0: 37d0 e13c a44f da3d fb8e 9e3d 5432 b0bd
000001b0: dc47 a3bd f14d cf3b 7e28 9ebd 7ce3 5a3c
000001c0: 40f3 fe3d 2d60 fd3d 424e 983c 3b4b cd3d
000001d0: e1ba f43d d5da 46bd edfc 77bd 3d29 61bd
000001e0: 03e7 f5bd a9a7 4e3b 4fc0 dbbd 4b83 863d
000001f0: 01d7 913d 393c a73d 5e6a d53b 9577 82bd
00000200: f391 acbd 351f f23d 4dfb 143d d2c4 e73d
00000210: 2061 b5bd a710 02bd 60b0 783d 0d89 4b3c
00000220: 2111 2f3d e76a d53d 6bde aabd 8e1f f43d
00000230: 9bf3 f53b a085 a93d 7973 bdbd 9980 40bd
00000240: d021 ac3d c175 76bd 204f 543b f721 5abd
00000250: b58a 7fbd ad5b ec3d 6136 c93d 4ac3 833d
00000260: 9e05 9e3d 09a5 ae3d 98b1 fcbd e50b 023e
00000270: f90f 663d ded7 19bd 85f1 4abd c35e 1abc
00000280: c1c8 ba3b cd73 c03d d747 debc b297 58bd
00000290: ca06 693c d416 e93d 4d10 223d 7239 f33d
000002a0: 1b43 cfbd e7ab cf3d 64c4 02bc 77ae 643b
000002b0: 8424 a5bd 8c66 8bbd e15a d6bd abc5 873c
000002c0: 5b36 4dbd 9d65 e23c d75e 573d 6f14 dcbd
000002d0: d441 d4bb 326d 243d 69d2 95bb 6af6 303c
000002e0: 46e8 f0bd 0de1 f8bd d7f8 dfbc e2fd 333d
000002f0: f1d4 103d 93b9 afbc d205 243d d108 45bd
00000300: 44db b6bd f5be d83d a35f 9dbd 6f4d 0cbd
00000310: dca8 fdbd 39b3 b9bd d61f 0a3d 8885 dabc
00000320: 091d 223d 103e 92bb c24f b4bd 149a e03d
00000330: 27b9 74bd b7a0 58bd b02c d23d cc93 79bd
00000340: b988 cbbd 4a08 c93d ab31 d13d ce88 a53d
00000350: 52d9 bcbc 3648 99bd e411 a23d d868 ad3d
00000360: 1b64 3e3d 458b ef3c 0858 d63d 49e6 5cbd
00000370: e53b 373d 0655 303d 623f bf3c 2882 d03d
00000380: ff96 d5bd f430 9e3d ef3f 7dbd b12f ae3d
00000390: 8439 83bd e3a9 fe3d e92b 723d a50d fc3c
000003a0: 2015 ed3d f9e1 f03d c33c 80bc 55f9 f83d
000003b0: 810e b03d 310f 7fbd ac0f 89bd 8d99 a83d
-0.03052782 -0.07995838 -0.076202475 0.004702185 0.097641274 -0.0706257 -0.11678321 0.023808595
0.11398544 -0.05024907 0.03452192 -0.07264123 -0.013879416 0.085474215 0.067681834 0.11534368
-0.048574578 -0.07380224 0.11672319 0.10796976 0.036344353 0.047203835 0.08348227 -0.014659112
0.0068751704 0.08385118 0.030522557 -0.12003816 0.0352182 -0.013045656 0.026616428 -0.013803467
-0.117262326 -0.07328954 0.10806276 -0.124283254 0.062271886 -0.028062042 -0.061564244 -0.0384766
-0.08018578 0.077579245 -0.033281125 0.07566595 -0.12879458 0.024174796 -0.12832324 0.01723522
-0.044802677 -0.1248741 -0.074970976 0.050228603 -0.057856444 0.09009689 -0.09840195 -0.081944086
0.01604957 0.076314695 0.09976011 -0.03876852 0.0058648265 -0.11482469 0.039314147 0.028690118
-0.042061314 -0.034880765 -0.118852206 0.060717724 -0.06208673 0.10174917 0.049357474 -0.059447356
-0.044861175 0.12780242 0.0056377803 -0.03018458 0.0677903 0.012839877 -0.012095347 -0.12736024
-0.08406558 0.028575478 -0.068336315 -0.034047294 0.051594052 -0.05299405 0.10806553 0.010900694
-0.08472199 0.044204768 -0.06455752 0.031090936 -0.065748945 0.022374753 0.010304553 0.10823862
-0.11999028 0.011825271 0.119858116 -0.03632193 0.044819593 0.124580935 0.107100554 0.007710455
0.027565105 0.106597215 0.07742115 -0.08603349 -0.079726905 0.00632643 -0.07722567 0.013359901
0.1244874 0.1237186 0.018592004 0.10024115 0.11949707 -0.04854854 -0.060543943 -0.05497097
-0.120069526 0.0031533039 -0.10730039 0.06568011 0.07121087 0.081657834 0.006512924 -0.06370465
-0.08426275 0.118223585 0.03637247 0.11316837 -0.08856416 -0.031754162 0.06071508 0.012422812
0.042740945 0.10420781 -0.08343204 0.11920081 0.0075058467 0.0827744 -0.0925054 -0.04699764
0.08404887 -0.060170893 0.0032395795 -0.053255048 -0.06238814 0.11540923 0.09824825 0.06433733
0.07715915 0.08527572 -0.12338561 0.1269985 0.056167576 -0.037559383 -0.049546737 -0.009422007
0.0057002013 0.09397087 -0.027133865 -0.052879043 0.01422281 0.11381307 0.039566327 0.11876191
-0.10120221 0.1014021 -0.0079813935 0.0034894028 -0.080636054 -0.06806669 -0.104665525 0.016573748
-0.050100666 0.027636344 0.05258068 -0.10746085 -0.006477574 0.0401432 -0.004572202 0.010800937
-0.11763053 -0.121523 -0.027340336 0.043943293 0.035359327 -0.021450793 0.040044613 -0.04810411
-0.0892854 0.10583297 -0.07684257 -0.034253534 -0.12385723 -0.09067387 0.033721767 -0.026675
0.03957847 -0.004462965 -0.08804275 0.10966888 -0.059746888 -0.052887645 0.1026243 -0.060931966
-0.09938187 0.09816034 0.102145515 0.08082734 -0.023052845 -0.07484476 0.079135686 0.08467263
0.046482187 0.029241214 0.104660094 -0.053930555 0.044734854 0.043049835 0.023345653 0.10181075
-0.10429191 0.07724181 -0.06182855 0.0850519 -0.064074546 0.12434747 0.059123907 0.030768225
0.11576295 0.11761851 -0.015653973 0.12156931 0.085965164 -0.062270347 -0.06692442 0.082324125
