oneflow/python/test/onnx/load/nodes/temp_onnx/temp.onnx (onnx, 853 bytes, 2 tensors)

11 f4 [4, 4, 3, 3]
0	0xbdd2b05b	-0.102875434
1	0xbbcb82e8	-0.0062106736
2	0x3dc6ef1f	0.097135775
3	0x3daedba7	0.08537989
4	0x3d96dadf	0.07365965
5	0x3d0af032	0.033920474
6	0xbd265a44	-0.040613428
7	0x3dca76f6	0.09885971
8	0xbdcbab9d	-0.09944842
9	0x3d1869f4	0.03721042
10	0x3def6507	0.11689191
11	0xbdece840	-0.11567736
12	0x3d805e01	0.0626793
13	0xbdf880e9	-0.12133963
14	0x3cbef68c	0.023310922
15	0x3e2022ce	0.15638277
16	0xbd5f959d	-0.05458604
17	0x3e08b752	0.13351181
18	0x3e01405c	0.12622207
19	0xbdd56908	-0.10420424
20	0x3d68f41f	0.056873437
21	0xbcd2883b	-0.025699725
22	0xbd740a00	-0.05957985
23	0x3e0ac512	0.13551739
24	0xbd899381	-0.06717587
25	0xbe16fa7d	-0.14743991
26	0xbddb862e	-0.10718952
27	0x3da2c526	0.07947759
28	0x3c8dfe71	0.017333241
29	0x3cdddbed	0.027082408
30	0xbd4d7a9d	-0.05016576
31	0x3dda44b0	0.10657632
32	0x3e180345	0.14844997
33	0x3e1fb9fc	0.15598291
34	0x3e0133c6	0.12617406
35	0xbdd22f03	-0.10262873
36	0x3e0745ef	0.13210271
37	0x3dad9c3f	0.08477067
38	0x3b0be928	0.0021348689
39	0x3cd7edcf	0.026358513
40	0xbdbbca15	-0.091694035
41	0x3cbe5278	0.023232684
42	0x3d0b3a5d	0.033991206
43	0x3e22bd02	0.15892413
44	0xbe02b2c1	-0.12763502
45	0xbda2753b	-0.07932516
46	0x3e1b127b	0.15143768
47	0x3dafdf69	0.08587534
48	0xbe03bb81	-0.12864496
49	0x3df8a401	0.12140656
50	0xbdf86efc	-0.121305436
51	0x3e28a271	0.16468216
52	0xbe20a686	-0.15688524
53	0xbc87576a	-0.016521174
54	0xbd819a35	-0.06328241
55	0x3cf55fcf	0.029952912
56	0xbcb07726	-0.02154119
57	0xbdcae3a3	-0.099066995
58	0x3d8cdc30	0.06877935
59	0x3c4e717c	0.012600299
60	0xbdd456d5	-0.103681244
61	0x3df96284	0.121769935
62	0xbddb7778	-0.10716146
63	0xbd8be428	-0.06830627
64	0x3dae266d	0.08503423
65	0xbdef8e89	-0.11697108
66	0xbd9cbc55	-0.07653109
67	0xbd38f8c3	-0.045159113
68	0x3e086172	0.13318422
69	0xbd8d4f6d	-0.06899915
70	0x3b41f016	0.0029592565
71	0xbe0b6ff0	-0.1361692
72	0xbcaf797c	-0.021420233
73	0xbd14f48f	-0.03636604
74	0xbe15e469	-0.14637913
75	0xbe288cdb	-0.16459982
76	0xbd01d950	-0.031701386
77	0x3e248512	0.16066387
78	0x3e151d0f	0.14561866
79	0xbd84e804	-0.06489566
80	0x3de7476c	0.112929195
81	0x3e01cd38	0.12675941
82	0xbc0fce3c	-0.008777197
83	0x3e05d178	0.13068187
84	0xbdd15896	-0.102219746
85	0x3e08d686	0.13363084
86	0xbba26d21	-0.004956857
87	0xbcec245e	-0.028825935
88	0x3d502312	0.050814696
89	0x3db8b919	0.090196796
90	0xbd2293d1	-0.03969175
91	0xbde22db4	-0.110438734
92	0x3dcdb0cb	0.10043486
93	0x3d3d4962	0.04621256
94	0xbdff1387	-0.124548964
95	0xbda3c7dd	-0.07997105
96	0xbdee076a	-0.11622508
97	0xbdf44413	-0.119270466
98	0xbe23dc46	-0.16001996
99	0xbe26c761	-0.16286995
100	0x3e1df9a0	0.15427256
101	0xbe07e2fb	-0.1327018
102	0xbd1b774d	-0.03795557
103	0x3ba49720	0.0050228983
104	0x3d1ff39c	0.039050683
105	0xbe0a90d9	-0.13531817
106	0xbda48420	-0.08033013
107	0x3e274758	0.16335809
108	0x3d5d4c5d	0.054027904
109	0xbd287db4	-0.041135505
110	0x3e116283	0.14197735
111	0x3e0073ae	0.12544128
112	0x3ddaf0be	0.10690449
113	0x3d7063cc	0.058688924
114	0xbbbd8b18	-0.0057844035
115	0xbd277b64	-0.04088916
116	0xbe1feff4	-0.15618879
117	0xbe0bdf15	-0.13659318
118	0xbe16e02c	-0.14733952
119	0x3caf2107	0.021378053
120	0x3e24044e	0.16017267
121	0xbdc2db16	-0.095144436
122	0xbe28b2c1	-0.16474439
123	0xbdc826b6	-0.097730085
124	0x3c2bb81e	0.010480909
125	0x3c74ac06	0.014933592
126	0x3d940292	0.07227053
127	0xbbd74c39	-0.0065703657
128	0xbb2dbec7	-0.0026511417
129	0xbdfe7088	-0.124238074
130	0xbbb97899	-0.0056601283
131	0x3c4944d4	0.012284476
132	0x3d650da0	0.055921197
133	0x3d508367	0.050906565
134	0x3e1d1bca	0.15342632
135	0x3d0f9a47	0.03505924
136	0x3e1e3dfe	0.15453336
137	0xbda83bcf	-0.082145326
138	0xbdcc0363	-0.099615835
139	0xbd597524	-0.05309023
140	0xbdc29e56	-0.095028564
141	0x3ca98dfe	0.02069759
142	0x3c0cf3e8	0.008603074
143	0xbe245045	-0.16046245

12 f4 [4]
0	0xbda8d0e1	-0.082429655
1	0x3e18aabd	0.14908881
2	0xbcd123db	-0.025529793
3	0xbe13ac0e	-0.14421102
